…
        "    epochs = 150, callbacks = [callbacks]\n",
        ")\n",
        "\n",
        "\n",
        "model.save('model.h5')\n",
        "files.download('model.h5')\n",
        "\n"
      ],
      "execution_count": 52,
      "outputs": [
        {
          "output_type": "stream",
          "text": [
            "Model: \"sequential_4\"\n",
            "_________________________________________________________________\n",
            "Layer (type)                 Output Shape              Param #   \n",
            "=================================================================\n",
            "conv2d_17 (Conv2D)           (None, 254, 254, 16)      448       \n",
            "_________________________________________________________________\n",
            "max_pooling2d_17 (MaxPooling (None, 127, 127, 16)      0         \n",
            "_________________________________________________________________\n",
            "batch_normalization_16 (Batc (None, 127, 127, 16)      64        \n",
            "_________________________________________________________________\n",
            "conv2d_18 (Conv2D)           (None, 125, 125, 32)      4640      \n",
            "_________________________________________________________________\n",
            "max_pooling2d_18 (MaxPooling (None, 62, 62, 32)        0         \n",
            "_________________________________________________________________\n",
            "batch_normalization_17 (Batc (None, 62, 62, 32)        128       \n",
            "_________________________________________________________________\n",
            "conv2d_19 (Conv2D)           (None, 60, 60, 64)        18496     \n",
            "_________________________________________________________________\n",
            "max_pooling2d_19 (MaxPooling (None, 30, 30, 64)        0         \n",
            "_________________________________________________________________\n",
            "batch_normalization_18 (Batc (None, 30, 30, 64)        256       \n",
            "_________________________________________________________________\n",
            "conv2d_20 (Conv2D)           (None, 28, 28, 128)       73856     \n",
            "_________________________________________________________________\n",
            "max_pooling2d_20 (MaxPooling (None, 14, 14, 128)       0         \n",
            "_________________________________________________________________\n",
            "batch_normalization_19 (Batc (None, 14, 14, 128)       512       \n",
            "_________________________________________________________________\n",
            "flatten_4 (Flatten)          (None, 25088)             0         \n",
            "_________________________________________________________________\n",
            "dropout_20 (Dropout)         (None, 25088)             0         \n",
            "_________________________________________________________________\n",
            "dense_8 (Dense)              (None, 512)               12845568  \n",
            "_________________________________________________________________\n",
            "dense_9 (Dense)              (None, 15)                7695      \n",
            "=================================================================\n",
            "Total params: 12,951,663\n",
            "Trainable params: 12,951,183\n",
            "Non-trainable params: 480\n",
            "_________________________________________________________________\n",
            "Epoch 1/150\n",
            "13/13 [==============================] - 39s 3s/step - loss: 3.5581 - accuracy: 0.1879 - val_loss: 2.7193 - val_accuracy: 0.0800\n",
…
