…
        "model.save(\"vegs.h5\")\n"
      ],
      "execution_count": 25,
      "outputs": [
        {
          "output_type": "stream",
          "text": [
            "Found 556 images belonging to 17 classes.\n",
            "Found 72 images belonging to 17 classes.\n",
            "Model: \"sequential_12\"\n",
            "_________________________________________________________________\n",
            "Layer (type)                 Output Shape              Param #   \n",
            "=================================================================\n",
            "conv2d_48 (Conv2D)           (None, 148, 148, 16)      448       \n",
            "_________________________________________________________________\n",
            "max_pooling2d_48 (MaxPooling (None, 74, 74, 16)        0         \n",
            "_________________________________________________________________\n",
            "conv2d_49 (Conv2D)           (None, 72, 72, 32)        4640      \n",
            "_________________________________________________________________\n",
            "max_pooling2d_49 (MaxPooling (None, 36, 36, 32)        0         \n",
            "_________________________________________________________________\n",
            "conv2d_50 (Conv2D)           (None, 34, 34, 64)        18496     \n",
            "_________________________________________________________________\n",
            "max_pooling2d_50 (MaxPooling (None, 17, 17, 64)        0         \n",
            "_________________________________________________________________\n",
            "conv2d_51 (Conv2D)           (None, 15, 15, 128)       73856     \n",
            "_________________________________________________________________\n",
            "max_pooling2d_51 (MaxPooling (None, 7, 7, 128)         0         \n",
            "_________________________________________________________________\n",
            "flatten_12 (Flatten)         (None, 6272)              0         \n",
            "_________________________________________________________________\n",
            "dropout_12 (Dropout)         (None, 6272)              0         \n",
            "_________________________________________________________________\n",
            "dense_48 (Dense)             (None, 512)               3211776   \n",
            "_________________________________________________________________\n",
            "dense_49 (Dense)             (None, 17)                8721      \n",
            "=================================================================\n",
            "Total params: 3,317,937\n",
            "Trainable params: 3,317,937\n",
            "Non-trainable params: 0\n",
            "_________________________________________________________________\n",
            "Epoch 1/100\n",
            "17/17 [==============================] - 12s 641ms/step - loss: 2.9445 - accuracy: 0.0548 - val_loss: 2.7415 - val_accuracy: 0.0972\n",
…
